…
    TYPE: "absolute"
    SIZE: (384, 384)
  SIZE_DIVISIBILITY: 384 
  FORMAT: "RGB"
  DATASET_MAPPER_NAME: "mask_former_semantic"
SOLVER:
  IMS_PER_BATCH: 4 
  LR_SCHEDULER_NAME: WarmupCosineLR
  BASE_LR: 0.0002
  MAX_ITER: 80000
  BACKBONE_MULTIPLIER: 0.0
  CLIP_MULTIPLIER: 0.075
TEST:
  EVAL_PERIOD: 80000
  
[07/18 06:28:14] detectron2.utils.env INFO: Using a generated random seed 17208288
[07/18 06:28:26] detectron2.engine.defaults INFO: Model:
CATSeg(
  (sem_seg_head): CATSegHead(
    (predictor): CATSegPredictor(
      (clip_model): CLIP(
        (visual): VisualTransformer(
          (conv1): Conv2d(3, 768, kernel_size=(16, 16), stride=(16, 16), bias=False)
          (ln_pre): LayerNorm((768,), eps=1e-05, elementwise_affine=True)
          (transformer): Transformer(
            (resblocks): Sequential(
              (0): ResidualAttentionBlock(
                (attn): MultiheadAttention(
                  (out_proj): NonDynamicallyQuantizableLinear(in_features=768, out_features=768, bias=True)
                )
                (ln_1): LayerNorm((768,), eps=1e-05, elementwise_affine=True)
                (mlp): Sequential(
                  (c_fc): Linear(in_features=768, out_features=3072, bias=True)
                  (gelu): QuickGELU()
                  (c_proj): Linear(in_features=3072, out_features=768, bias=True)
                )
                (ln_2): LayerNorm((768,), eps=1e-05, elementwise_affine=True)
                (hyperbolic_attn): Adapter_init(
                  (adapter_attn_q): BlockDiagonalLinear()
                  (adapter_attn_k): BlockDiagonalLinear()
                  (adapter_attn_v): BlockDiagonalLinear()
                )
                (dp): Dropout(p=0.0, inplace=False)
              )
              (1): ResidualAttentionBlock(
                (attn): MultiheadAttention(
                  (out_proj): NonDynamicallyQuantizableLinear(in_features=768, out_features=768, bias=True)
                )
                (ln_1): LayerNorm((768,), eps=1e-05, elementwise_affine=True)
                (mlp): Sequential(
                  (c_fc): Linear(in_features=768, out_features=3072, bias=True)
                  (gelu): QuickGELU()
                  (c_proj): Linear(in_features=3072, out_features=768, bias=True)
                )
                (ln_2): LayerNorm((768,), eps=1e-05, elementwise_affine=True)
                (hyperbolic_attn): Adapter_init(
                  (adapter_attn_q): BlockDiagonalLinear()
                  (adapter_attn_k): BlockDiagonalLinear()
                  (adapter_attn_v): BlockDiagonalLinear()
                )
                (dp): Dropout(p=0.0, inplace=False)
              )
              (2): ResidualAttentionBlock(
                (attn): MultiheadAttention(
                  (out_proj): NonDynamicallyQuantizableLinear(in_features=768, out_features=768, bias=True)
                )
                (ln_1): LayerNorm((768,), eps=1e-05, elementwise_affine=True)
                (mlp): Sequential(
                  (c_fc): Linear(in_features=768, out_features=3072, bias=True)
                  (gelu): QuickGELU()
                  (c_proj): Linear(in_features=3072, out_features=768, bias=True)
                )
                (ln_2): LayerNorm((768,), eps=1e-05, elementwise_affine=True)
                (hyperbolic_attn): Adapter_init(
                  (adapter_attn_q): BlockDiagonalLinear()
                  (adapter_attn_k): BlockDiagonalLinear()
                  (adapter_attn_v): BlockDiagonalLinear()
                )
                (dp): Dropout(p=0.0, inplace=False)
              )
              (3): ResidualAttentionBlock(
                (attn): MultiheadAttention(
                  (out_proj): NonDynamicallyQuantizableLinear(in_features=768, out_features=768, bias=True)
                )
                (ln_1): LayerNorm((768,), eps=1e-05, elementwise_affine=True)
                (mlp): Sequential(
                  (c_fc): Linear(in_features=768, out_features=3072, bias=True)
                  (gelu): QuickGELU()
                  (c_proj): Linear(in_features=3072, out_features=768, bias=True)
                )
                (ln_2): LayerNorm((768,), eps=1e-05, elementwise_affine=True)
                (hyperbolic_attn): Adapter_init(
                  (adapter_attn_q): BlockDiagonalLinear()
                  (adapter_attn_k): BlockDiagonalLinear()
                  (adapter_attn_v): BlockDiagonalLinear()
                )
                (dp): Dropout(p=0.0, inplace=False)
              )
              (4): ResidualAttentionBlock(
                (attn): MultiheadAttention(
                  (out_proj): NonDynamicallyQuantizableLinear(in_features=768, out_features=768, bias=True)
                )
                (ln_1): LayerNorm((768,), eps=1e-05, elementwise_affine=True)
                (mlp): Sequential(
                  (c_fc): Linear(in_features=768, out_features=3072, bias=True)
                  (gelu): QuickGELU()
                  (c_proj): Linear(in_features=3072, out_features=768, bias=True)
                )
                (ln_2): LayerNorm((768,), eps=1e-05, elementwise_affine=True)
                (hyperbolic_attn): Adapter_init(
                  (adapter_attn_q): BlockDiagonalLinear()
                  (adapter_attn_k): BlockDiagonalLinear()
                  (adapter_attn_v): BlockDiagonalLinear()
                )
                (dp): Dropout(p=0.0, inplace=False)
              )
              (5): ResidualAttentionBlock(
                (attn): MultiheadAttention(
                  (out_proj): NonDynamicallyQuantizableLinear(in_features=768, out_features=768, bias=True)
                )
                (ln_1): LayerNorm((768,), eps=1e-05, elementwise_affine=True)
                (mlp): Sequential(
                  (c_fc): Linear(in_features=768, out_features=3072, bias=True)
                  (gelu): QuickGELU()
                  (c_proj): Linear(in_features=3072, out_features=768, bias=True)
                )
                (ln_2): LayerNorm((768,), eps=1e-05, elementwise_affine=True)
                (hyperbolic_attn): Adapter_init(
                  (adapter_attn_q): BlockDiagonalLinear()
                  (adapter_attn_k): BlockDiagonalLinear()
                  (adapter_attn_v): BlockDiagonalLinear()
                )
                (dp): Dropout(p=0.0, inplace=False)
              )
              (6): ResidualAttentionBlock(
                (attn): MultiheadAttention(
                  (out_proj): NonDynamicallyQuantizableLinear(in_features=768, out_features=768, bias=True)
                )
                (ln_1): LayerNorm((768,), eps=1e-05, elementwise_affine=True)
                (mlp): Sequential(
                  (c_fc): Linear(in_features=768, out_features=3072, bias=True)
                  (gelu): QuickGELU()
                  (c_proj): Linear(in_features=3072, out_features=768, bias=True)
                )
                (ln_2): LayerNorm((768,), eps=1e-05, elementwise_affine=True)
                (hyperbolic_attn): Adapter_init(
                  (adapter_attn_q): BlockDiagonalLinear()
                  (adapter_attn_k): BlockDiagonalLinear()
                  (adapter_attn_v): BlockDiagonalLinear()
                )
                (dp): Dropout(p=0.0, inplace=False)
              )
              (7): ResidualAttentionBlock(
                (attn): MultiheadAttention(
                  (out_proj): NonDynamicallyQuantizableLinear(in_features=768, out_features=768, bias=True)
                )
                (ln_1): LayerNorm((768,), eps=1e-05, elementwise_affine=True)
                (mlp): Sequential(
                  (c_fc): Linear(in_features=768, out_features=3072, bias=True)
                  (gelu): QuickGELU()
                  (c_proj): Linear(in_features=3072, out_features=768, bias=True)
                )
                (ln_2): LayerNorm((768,), eps=1e-05, elementwise_affine=True)
                (hyperbolic_attn): Adapter_init(
                  (adapter_attn_q): BlockDiagonalLinear()
                  (adapter_attn_k): BlockDiagonalLinear()
                  (adapter_attn_v): BlockDiagonalLinear()
                )
                (dp): Dropout(p=0.0, inplace=False)
              )
              (8): ResidualAttentionBlock(
                (attn): MultiheadAttention(
                  (out_proj): NonDynamicallyQuantizableLinear(in_features=768, out_features=768, bias=True)
                )
                (ln_1): LayerNorm((768,), eps=1e-05, elementwise_affine=True)
                (mlp): Sequential(
                  (c_fc): Linear(in_features=768, out_features=3072, bias=True)
                  (gelu): QuickGELU()
                  (c_proj): Linear(in_features=3072, out_features=768, bias=True)
                )
                (ln_2): LayerNorm((768,), eps=1e-05, elementwise_affine=True)
                (hyperbolic_attn): Adapter_init(
                  (adapter_attn_q): BlockDiagonalLinear()
                  (adapter_attn_k): BlockDiagonalLinear()
                  (adapter_attn_v): BlockDiagonalLinear()
                )
                (dp): Dropout(p=0.0, inplace=False)
              )
              (9): ResidualAttentionBlock(
                (attn): MultiheadAttention(
                  (out_proj): NonDynamicallyQuantizableLinear(in_features=768, out_features=768, bias=True)
                )
                (ln_1): LayerNorm((768,), eps=1e-05, elementwise_affine=True)
                (mlp): Sequential(
                  (c_fc): Linear(in_features=768, out_features=3072, bias=True)
                  (gelu): QuickGELU()
                  (c_proj): Linear(in_features=3072, out_features=768, bias=True)
                )
                (ln_2): LayerNorm((768,), eps=1e-05, elementwise_affine=True)
                (hyperbolic_attn): Adapter_init(
                  (adapter_attn_q): BlockDiagonalLinear()
                  (adapter_attn_k): BlockDiagonalLinear()
                  (adapter_attn_v): BlockDiagonalLinear()
                )
                (dp): Dropout(p=0.0, inplace=False)
              )
              (10): ResidualAttentionBlock(
                (attn): MultiheadAttention(
                  (out_proj): NonDynamicallyQuantizableLinear(in_features=768, out_features=768, bias=True)
                )
                (ln_1): LayerNorm((768,), eps=1e-05, elementwise_affine=True)
                (mlp): Sequential(
                  (c_fc): Linear(in_features=768, out_features=3072, bias=True)
                  (gelu): QuickGELU()
                  (c_proj): Linear(in_features=3072, out_features=768, bias=True)
                )
                (ln_2): LayerNorm((768,), eps=1e-05, elementwise_affine=True)
                (hyperbolic_attn): Adapter_init(
                  (adapter_attn_q): BlockDiagonalLinear()
                  (adapter_attn_k): BlockDiagonalLinear()
                  (adapter_attn_v): BlockDiagonalLinear()
                )
                (dp): Dropout(p=0.0, inplace=False)
              )
              (11): ResidualAttentionBlock(
                (attn): MultiheadAttention(
                  (out_proj): NonDynamicallyQuantizableLinear(in_features=768, out_features=768, bias=True)
                )
                (ln_1): LayerNorm((768,), eps=1e-05, elementwise_affine=True)
                (mlp): Sequential(
                  (c_fc): Linear(in_features=768, out_features=3072, bias=True)
                  (gelu): QuickGELU()
                  (c_proj): Linear(in_features=3072, out_features=768, bias=True)
                )
                (ln_2): LayerNorm((768,), eps=1e-05, elementwise_affine=True)
                (hyperbolic_attn): Adapter_init(
                  (adapter_attn_q): BlockDiagonalLinear()
                  (adapter_attn_k): BlockDiagonalLinear()
                  (adapter_attn_v): BlockDiagonalLinear()
                )
                (dp): Dropout(p=0.0, inplace=False)
              )
            )
          )
          (ln_post): LayerNorm((768,), eps=1e-05, elementwise_affine=True)
        )
        (transformer): Transformer(
          (resblocks): Sequential(
            (0): ResidualAttentionBlock(
              (attn): MultiheadAttention(
                (out_proj): NonDynamicallyQuantizableLinear(in_features=512, out_features=512, bias=True)
              )
              (ln_1): LayerNorm((512,), eps=1e-05, elementwise_affine=True)
              (mlp): Sequential(
                (c_fc): Linear(in_features=512, out_features=2048, bias=True)
                (gelu): QuickGELU()
                (c_proj): Linear(in_features=2048, out_features=512, bias=True)
              )
              (ln_2): LayerNorm((512,), eps=1e-05, elementwise_affine=True)
              (hyperbolic_attn): Adapter_init_text(
                (adapter_attn_q): BlockDiagonalLinear_text()
                (adapter_attn_k): BlockDiagonalLinear_text()
                (adapter_attn_v): BlockDiagonalLinear_text()
              )
              (dp): Dropout(p=0.0, inplace=False)
            )
            (1): ResidualAttentionBlock(
              (attn): MultiheadAttention(
                (out_proj): NonDynamicallyQuantizableLinear(in_features=512, out_features=512, bias=True)
              )
              (ln_1): LayerNorm((512,), eps=1e-05, elementwise_affine=True)
              (mlp): Sequential(
                (c_fc): Linear(in_features=512, out_features=2048, bias=True)
                (gelu): QuickGELU()
                (c_proj): Linear(in_features=2048, out_features=512, bias=True)
              )
              (ln_2): LayerNorm((512,), eps=1e-05, elementwise_affine=True)
              (hyperbolic_attn): Adapter_init_text(
                (adapter_attn_q): BlockDiagonalLinear_text()
                (adapter_attn_k): BlockDiagonalLinear_text()
                (adapter_attn_v): BlockDiagonalLinear_text()
              )
              (dp): Dropout(p=0.0, inplace=False)
            )
            (2): ResidualAttentionBlock(
              (attn): MultiheadAttention(
                (out_proj): NonDynamicallyQuantizableLinear(in_features=512, out_features=512, bias=True)
              )
              (ln_1): LayerNorm((512,), eps=1e-05, elementwise_affine=True)
              (mlp): Sequential(
                (c_fc): Linear(in_features=512, out_features=2048, bias=True)
                (gelu): QuickGELU()
                (c_proj): Linear(in_features=2048, out_features=512, bias=True)
              )
              (ln_2): LayerNorm((512,), eps=1e-05, elementwise_affine=True)
              (hyperbolic_attn): Adapter_init_text(
                (adapter_attn_q): BlockDiagonalLinear_text()
                (adapter_attn_k): BlockDiagonalLinear_text()
                (adapter_attn_v): BlockDiagonalLinear_text()
              )
              (dp): Dropout(p=0.0, inplace=False)
            )
            (3): ResidualAttentionBlock(
              (attn): MultiheadAttention(
                (out_proj): NonDynamicallyQuantizableLinear(in_features=512, out_features=512, bias=True)
              )
              (ln_1): LayerNorm((512,), eps=1e-05, elementwise_affine=True)
              (mlp): Sequential(
                (c_fc): Linear(in_features=512, out_features=2048, bias=True)
                (gelu): QuickGELU()
                (c_proj): Linear(in_features=2048, out_features=512, bias=True)
              )
              (ln_2): LayerNorm((512,), eps=1e-05, elementwise_affine=True)
              (hyperbolic_attn): Adapter_init_text(
                (adapter_attn_q): BlockDiagonalLinear_text()
                (adapter_attn_k): BlockDiagonalLinear_text()
                (adapter_attn_v): BlockDiagonalLinear_text()
              )
              (dp): Dropout(p=0.0, inplace=False)
            )
            (4): ResidualAttentionBlock(
              (attn): MultiheadAttention(
                (out_proj): NonDynamicallyQuantizableLinear(in_features=512, out_features=512, bias=True)
              )
              (ln_1): LayerNorm((512,), eps=1e-05, elementwise_affine=True)
              (mlp): Sequential(
                (c_fc): Linear(in_features=512, out_features=2048, bias=True)
                (gelu): QuickGELU()
                (c_proj): Linear(in_features=2048, out_features=512, bias=True)
              )
              (ln_2): LayerNorm((512,), eps=1e-05, elementwise_affine=True)
              (hyperbolic_attn): Adapter_init_text(
                (adapter_attn_q): BlockDiagonalLinear_text()
                (adapter_attn_k): BlockDiagonalLinear_text()
                (adapter_attn_v): BlockDiagonalLinear_text()
              )
              (dp): Dropout(p=0.0, inplace=False)
            )
            (5): ResidualAttentionBlock(
              (attn): MultiheadAttention(
                (out_proj): NonDynamicallyQuantizableLinear(in_features=512, out_features=512, bias=True)
              )
              (ln_1): LayerNorm((512,), eps=1e-05, elementwise_affine=True)
              (mlp): Sequential(
                (c_fc): Linear(in_features=512, out_features=2048, bias=True)
                (gelu): QuickGELU()
                (c_proj): Linear(in_features=2048, out_features=512, bias=True)
              )
              (ln_2): LayerNorm((512,), eps=1e-05, elementwise_affine=True)
              (hyperbolic_attn): Adapter_init_text(
                (adapter_attn_q): BlockDiagonalLinear_text()
                (adapter_attn_k): BlockDiagonalLinear_text()
                (adapter_attn_v): BlockDiagonalLinear_text()
              )
              (dp): Dropout(p=0.0, inplace=False)
            )
            (6): ResidualAttentionBlock(
              (attn): MultiheadAttention(
                (out_proj): NonDynamicallyQuantizableLinear(in_features=512, out_features=512, bias=True)
              )
              (ln_1): LayerNorm((512,), eps=1e-05, elementwise_affine=True)
              (mlp): Sequential(
                (c_fc): Linear(in_features=512, out_features=2048, bias=True)
                (gelu): QuickGELU()
                (c_proj): Linear(in_features=2048, out_features=512, bias=True)
              )
              (ln_2): LayerNorm((512,), eps=1e-05, elementwise_affine=True)
              (hyperbolic_attn): Adapter_init_text(
                (adapter_attn_q): BlockDiagonalLinear_text()
                (adapter_attn_k): BlockDiagonalLinear_text()
                (adapter_attn_v): BlockDiagonalLinear_text()
              )
              (dp): Dropout(p=0.0, inplace=False)
            )
            (7): ResidualAttentionBlock(
              (attn): MultiheadAttention(
                (out_proj): NonDynamicallyQuantizableLinear(in_features=512, out_features=512, bias=True)
              )
              (ln_1): LayerNorm((512,), eps=1e-05, elementwise_affine=True)
              (mlp): Sequential(
                (c_fc): Linear(in_features=512, out_features=2048, bias=True)
                (gelu): QuickGELU()
                (c_proj): Linear(in_features=2048, out_features=512, bias=True)
              )
              (ln_2): LayerNorm((512,), eps=1e-05, elementwise_affine=True)
              (hyperbolic_attn): Adapter_init_text(
                (adapter_attn_q): BlockDiagonalLinear_text()
                (adapter_attn_k): BlockDiagonalLinear_text()
                (adapter_attn_v): BlockDiagonalLinear_text()
              )
              (dp): Dropout(p=0.0, inplace=False)
            )
            (8): ResidualAttentionBlock(
              (attn): MultiheadAttention(
                (out_proj): NonDynamicallyQuantizableLinear(in_features=512, out_features=512, bias=True)
              )
              (ln_1): LayerNorm((512,), eps=1e-05, elementwise_affine=True)
              (mlp): Sequential(
                (c_fc): Linear(in_features=512, out_features=2048, bias=True)
                (gelu): QuickGELU()
                (c_proj): Linear(in_features=2048, out_features=512, bias=True)
              )
              (ln_2): LayerNorm((512,), eps=1e-05, elementwise_affine=True)
              (hyperbolic_attn): Adapter_init_text(
                (adapter_attn_q): BlockDiagonalLinear_text()
                (adapter_attn_k): BlockDiagonalLinear_text()
                (adapter_attn_v): BlockDiagonalLinear_text()
              )
              (dp): Dropout(p=0.0, inplace=False)
            )
            (9): ResidualAttentionBlock(
              (attn): MultiheadAttention(
                (out_proj): NonDynamicallyQuantizableLinear(in_features=512, out_features=512, bias=True)
              )
              (ln_1): LayerNorm((512,), eps=1e-05, elementwise_affine=True)
              (mlp): Sequential(
                (c_fc): Linear(in_features=512, out_features=2048, bias=True)
                (gelu): QuickGELU()
                (c_proj): Linear(in_features=2048, out_features=512, bias=True)
              )
              (ln_2): LayerNorm((512,), eps=1e-05, elementwise_affine=True)
              (hyperbolic_attn): Adapter_init_text(
                (adapter_attn_q): BlockDiagonalLinear_text()
                (adapter_attn_k): BlockDiagonalLinear_text()
                (adapter_attn_v): BlockDiagonalLinear_text()
              )
              (dp): Dropout(p=0.0, inplace=False)
            )
            (10): ResidualAttentionBlock(
              (attn): MultiheadAttention(
                (out_proj): NonDynamicallyQuantizableLinear(in_features=512, out_features=512, bias=True)
              )
              (ln_1): LayerNorm((512,), eps=1e-05, elementwise_affine=True)
              (mlp): Sequential(
                (c_fc): Linear(in_features=512, out_features=2048, bias=True)
                (gelu): QuickGELU()
                (c_proj): Linear(in_features=2048, out_features=512, bias=True)
              )
              (ln_2): LayerNorm((512,), eps=1e-05, elementwise_affine=True)
              (hyperbolic_attn): Adapter_init_text(
                (adapter_attn_q): BlockDiagonalLinear_text()
                (adapter_attn_k): BlockDiagonalLinear_text()
                (adapter_attn_v): BlockDiagonalLinear_text()
              )
              (dp): Dropout(p=0.0, inplace=False)
            )
            (11): ResidualAttentionBlock(
              (attn): MultiheadAttention(
                (out_proj): NonDynamicallyQuantizableLinear(in_features=512, out_features=512, bias=True)
              )
              (ln_1): LayerNorm((512,), eps=1e-05, elementwise_affine=True)
              (mlp): Sequential(
                (c_fc): Linear(in_features=512, out_features=2048, bias=True)
                (gelu): QuickGELU()
                (c_proj): Linear(in_features=2048, out_features=512, bias=True)
              )
              (ln_2): LayerNorm((512,), eps=1e-05, elementwise_affine=True)
              (hyperbolic_attn): Adapter_init_text(
                (adapter_attn_q): BlockDiagonalLinear_text()
                (adapter_attn_k): BlockDiagonalLinear_text()
                (adapter_attn_v): BlockDiagonalLinear_text()
              )
              (dp): Dropout(p=0.0, inplace=False)
            )
          )
        )
        (token_embedding): Embedding(49408, 512)
        (ln_final): LayerNorm((512,), eps=1e-05, elementwise_affine=True)
      )
      (transformer): Aggregator(
        (layers): ModuleList(
          (0): AggregatorLayer(
            (swin_block): SwinTransformerBlockWrapper(
              (block_1): SwinTransformerBlock(
                (norm1): LayerNorm((128,), eps=1e-05, elementwise_affine=True)
                (attn): WindowAttention(
                  (q): Linear(in_features=256, out_features=128, bias=True)
                  (k): Linear(in_features=256, out_features=128, bias=True)
                  (v): Linear(in_features=128, out_features=128, bias=True)
                  (attn_drop): Dropout(p=0.0, inplace=False)
                  (proj): Linear(in_features=128, out_features=128, bias=True)
                  (proj_drop): Dropout(p=0.0, inplace=False)
                  (softmax): Softmax(dim=-1)
                )
                (drop_path): Identity()
                (norm2): LayerNorm((128,), eps=1e-05, elementwise_affine=True)
                (mlp): Mlp(
                  (fc1): Linear(in_features=128, out_features=512, bias=True)
                  (act): GELU(approximate='none')
                  (drop1): Dropout(p=0.0, inplace=False)
                  (fc2): Linear(in_features=512, out_features=128, bias=True)
                  (drop2): Dropout(p=0.0, inplace=False)
                )
              )
              (block_2): SwinTransformerBlock(
                (norm1): LayerNorm((128,), eps=1e-05, elementwise_affine=True)
                (attn): WindowAttention(
                  (q): Linear(in_features=256, out_features=128, bias=True)
                  (k): Linear(in_features=256, out_features=128, bias=True)
                  (v): Linear(in_features=128, out_features=128, bias=True)
                  (attn_drop): Dropout(p=0.0, inplace=False)
                  (proj): Linear(in_features=128, out_features=128, bias=True)
                  (proj_drop): Dropout(p=0.0, inplace=False)
                  (softmax): Softmax(dim=-1)
                )
                (drop_path): Identity()
                (norm2): LayerNorm((128,), eps=1e-05, elementwise_affine=True)
                (mlp): Mlp(
                  (fc1): Linear(in_features=128, out_features=512, bias=True)
                  (act): GELU(approximate='none')
                  (drop1): Dropout(p=0.0, inplace=False)
                  (fc2): Linear(in_features=512, out_features=128, bias=True)
                  (drop2): Dropout(p=0.0, inplace=False)
                )
              )
              (guidance_norm): LayerNorm((128,), eps=1e-05, elementwise_affine=True)
            )
            (attention): ClassTransformerLayer(
              (pool): AvgPool2d(kernel_size=[2, 2], stride=[2, 2], padding=0)
              (attention): AttentionLayer(
                (q): Linear(in_features=256, out_features=128, bias=True)
                (k): Linear(in_features=256, out_features=128, bias=True)
                (v): Linear(in_features=128, out_features=128, bias=True)
                (attention): LinearAttention()
              )
              (MLP): Sequential(
                (0): Linear(in_features=128, out_features=512, bias=True)
                (1): ReLU()
                (2): Linear(in_features=512, out_features=128, bias=True)
              )
              (norm1): LayerNorm((128,), eps=1e-05, elementwise_affine=True)
              (norm2): LayerNorm((128,), eps=1e-05, elementwise_affine=True)
            )
          )
          (1): AggregatorLayer(
            (swin_block): SwinTransformerBlockWrapper(
              (block_1): SwinTransformerBlock(
                (norm1): LayerNorm((128,), eps=1e-05, elementwise_affine=True)
                (attn): WindowAttention(
                  (q): Linear(in_features=256, out_features=128, bias=True)
                  (k): Linear(in_features=256, out_features=128, bias=True)
                  (v): Linear(in_features=128, out_features=128, bias=True)
                  (attn_drop): Dropout(p=0.0, inplace=False)
                  (proj): Linear(in_features=128, out_features=128, bias=True)
                  (proj_drop): Dropout(p=0.0, inplace=False)
                  (softmax): Softmax(dim=-1)
                )
                (drop_path): Identity()
                (norm2): LayerNorm((128,), eps=1e-05, elementwise_affine=True)
                (mlp): Mlp(
                  (fc1): Linear(in_features=128, out_features=512, bias=True)
                  (act): GELU(approximate='none')
                  (drop1): Dropout(p=0.0, inplace=False)
                  (fc2): Linear(in_features=512, out_features=128, bias=True)
                  (drop2): Dropout(p=0.0, inplace=False)
                )
              )
              (block_2): SwinTransformerBlock(
                (norm1): LayerNorm((128,), eps=1e-05, elementwise_affine=True)
                (attn): WindowAttention(
                  (q): Linear(in_features=256, out_features=128, bias=True)
                  (k): Linear(in_features=256, out_features=128, bias=True)
                  (v): Linear(in_features=128, out_features=128, bias=True)
                  (attn_drop): Dropout(p=0.0, inplace=False)
                  (proj): Linear(in_features=128, out_features=128, bias=True)
                  (proj_drop): Dropout(p=0.0, inplace=False)
                  (softmax): Softmax(dim=-1)
                )
                (drop_path): Identity()
                (norm2): LayerNorm((128,), eps=1e-05, elementwise_affine=True)
                (mlp): Mlp(
                  (fc1): Linear(in_features=128, out_features=512, bias=True)
                  (act): GELU(approximate='none')
                  (drop1): Dropout(p=0.0, inplace=False)
                  (fc2): Linear(in_features=512, out_features=128, bias=True)
                  (drop2): Dropout(p=0.0, inplace=False)
                )
              )
              (guidance_norm): LayerNorm((128,), eps=1e-05, elementwise_affine=True)
            )
            (attention): ClassTransformerLayer(
              (pool): AvgPool2d(kernel_size=[2, 2], stride=[2, 2], padding=0)
              (attention): AttentionLayer(
                (q): Linear(in_features=256, out_features=128, bias=True)
                (k): Linear(in_features=256, out_features=128, bias=True)
                (v): Linear(in_features=128, out_features=128, bias=True)
                (attention): LinearAttention()
              )
              (MLP): Sequential(
                (0): Linear(in_features=128, out_features=512, bias=True)
                (1): ReLU()
                (2): Linear(in_features=512, out_features=128, bias=True)
              )
              (norm1): LayerNorm((128,), eps=1e-05, elementwise_affine=True)
              (norm2): LayerNorm((128,), eps=1e-05, elementwise_affine=True)
            )
          )
        )
        (conv1): Conv2d(1, 128, kernel_size=(7, 7), stride=(1, 1), padding=(3, 3))
        (guidance_projection): Sequential(
          (0): Conv2d(512, 128, kernel_size=(3, 3), stride=(1, 1), padding=(1, 1))
          (1): ReLU()
        )
        (text_guidance_projection): Sequential(
          (0): Linear(in_features=512, out_features=128, bias=True)
          (1): ReLU()
        )
        (decoder_guidance_projection): ModuleList(
          (0): Sequential(
            (0): Conv2d(256, 32, kernel_size=(3, 3), stride=(1, 1), padding=(1, 1))
            (1): ReLU()
          )
          (1): Sequential(
            (0): Conv2d(128, 16, kernel_size=(3, 3), stride=(1, 1), padding=(1, 1))
            (1): ReLU()
          )
        )
        (decoder1): Up(
          (up): ConvTranspose2d(128, 96, kernel_size=(2, 2), stride=(2, 2))
          (conv): DoubleConv(
            (double_conv): Sequential(
              (0): Conv2d(128, 64, kernel_size=(3, 3), stride=(1, 1), padding=(1, 1), bias=False)
              (1): GroupNorm(4, 64, eps=1e-05, affine=True)
              (2): ReLU(inplace=True)
              (3): Conv2d(64, 64, kernel_size=(3, 3), stride=(1, 1), padding=(1, 1), bias=False)
              (4): GroupNorm(4, 64, eps=1e-05, affine=True)
              (5): ReLU(inplace=True)
            )
          )
        )
        (decoder2): Up(
          (up): ConvTranspose2d(64, 48, kernel_size=(2, 2), stride=(2, 2))
          (conv): DoubleConv(
            (double_conv): Sequential(
              (0): Conv2d(64, 32, kernel_size=(3, 3), stride=(1, 1), padding=(1, 1), bias=False)
              (1): GroupNorm(2, 32, eps=1e-05, affine=True)
              (2): ReLU(inplace=True)
              (3): Conv2d(32, 32, kernel_size=(3, 3), stride=(1, 1), padding=(1, 1), bias=False)
              (4): GroupNorm(2, 32, eps=1e-05, affine=True)
              (5): ReLU(inplace=True)
            )
          )
        )
        (head): Conv2d(32, 1, kernel_size=(3, 3), stride=(1, 1), padding=(1, 1))
      )
    )
  )
  (upsample1): ConvTranspose2d(768, 256, kernel_size=(2, 2), stride=(2, 2))
  (upsample2): ConvTranspose2d(768, 128, kernel_size=(4, 4), stride=(4, 4))
)
[07/18 06:28:29] detectron2.data.datasets.coco INFO: Loaded 118287 images with semantic segmentation from ../OV_seg/coco-stuff/images/train2017
[07/18 06:28:29] detectron2.data.build INFO: Using training sampler TrainingSampler
[07/18 06:28:31] detectron2.data.common INFO: Serializing the dataset using: <class 'detectron2.data.common._TorchSerializedList'>
…
